…
1426/1426 [==============================] - 116s 81ms/step - loss: 0.1583 - mean_absolute_error: 0.2973
Kappa Score: 0.7666393275818477
Build model ...
Tensor("sentence_feature_input_1:0", shape=(?, 52, 2), dtype=float32)
Tensor("lambda_107/stack:0", shape=(?, 52, 64), dtype=float32)
__________________________________________________________________________________________________
Layer (type)                    Output Shape         Param #     Connected to                     
==================================================================================================
text_input (InputLayer)         (None, 4472)         0                                            
__________________________________________________________________________________________________
embedding_2 (Embedding)         (None, 4472, 100)    1520800     text_input[0][0]                 
__________________________________________________________________________________________________
lstm_3 (LSTM)                   (None, 4472, 64)     42240       embedding_2[0][0]                
__________________________________________________________________________________________________
lambda_55 (Lambda)              (None, 64)           0           lstm_3[0][0]                     
__________________________________________________________________________________________________
lambda_56 (Lambda)              (None, 64)           0           lstm_3[0][0]                     
__________________________________________________________________________________________________
lambda_57 (Lambda)              (None, 64)           0           lstm_3[0][0]                     
__________________________________________________________________________________________________
lambda_58 (Lambda)              (None, 64)           0           lstm_3[0][0]                     
__________________________________________________________________________________________________
lambda_59 (Lambda)              (None, 64)           0           lstm_3[0][0]                     
__________________________________________________________________________________________________
lambda_60 (Lambda)              (None, 64)           0           lstm_3[0][0]                     
__________________________________________________________________________________________________
lambda_61 (Lambda)              (None, 64)           0           lstm_3[0][0]                     
__________________________________________________________________________________________________
lambda_62 (Lambda)              (None, 64)           0           lstm_3[0][0]                     
__________________________________________________________________________________________________
lambda_63 (Lambda)              (None, 64)           0           lstm_3[0][0]                     
__________________________________________________________________________________________________
lambda_64 (Lambda)              (None, 64)           0           lstm_3[0][0]                     
__________________________________________________________________________________________________
lambda_65 (Lambda)              (None, 64)           0           lstm_3[0][0]                     
__________________________________________________________________________________________________
lambda_66 (Lambda)              (None, 64)           0           lstm_3[0][0]                     
__________________________________________________________________________________________________
lambda_67 (Lambda)              (None, 64)           0           lstm_3[0][0]                     
__________________________________________________________________________________________________
lambda_68 (Lambda)              (None, 64)           0           lstm_3[0][0]                     
__________________________________________________________________________________________________
lambda_69 (Lambda)              (None, 64)           0           lstm_3[0][0]                     
__________________________________________________________________________________________________
lambda_70 (Lambda)              (None, 64)           0           lstm_3[0][0]                     
__________________________________________________________________________________________________
lambda_71 (Lambda)              (None, 64)           0           lstm_3[0][0]                     
__________________________________________________________________________________________________
lambda_72 (Lambda)              (None, 64)           0           lstm_3[0][0]                     
__________________________________________________________________________________________________
lambda_73 (Lambda)              (None, 64)           0           lstm_3[0][0]                     
__________________________________________________________________________________________________
lambda_74 (Lambda)              (None, 64)           0           lstm_3[0][0]                     
__________________________________________________________________________________________________
lambda_75 (Lambda)              (None, 64)           0           lstm_3[0][0]                     
__________________________________________________________________________________________________
lambda_76 (Lambda)              (None, 64)           0           lstm_3[0][0]                     
__________________________________________________________________________________________________
lambda_77 (Lambda)              (None, 64)           0           lstm_3[0][0]                     
__________________________________________________________________________________________________
lambda_78 (Lambda)              (None, 64)           0           lstm_3[0][0]                     
__________________________________________________________________________________________________
lambda_79 (Lambda)              (None, 64)           0           lstm_3[0][0]                     
__________________________________________________________________________________________________
lambda_80 (Lambda)              (None, 64)           0           lstm_3[0][0]                     
__________________________________________________________________________________________________
lambda_81 (Lambda)              (None, 64)           0           lstm_3[0][0]                     
__________________________________________________________________________________________________
lambda_82 (Lambda)              (None, 64)           0           lstm_3[0][0]                     
__________________________________________________________________________________________________
lambda_83 (Lambda)              (None, 64)           0           lstm_3[0][0]                     
__________________________________________________________________________________________________
lambda_84 (Lambda)              (None, 64)           0           lstm_3[0][0]                     
__________________________________________________________________________________________________
lambda_85 (Lambda)              (None, 64)           0           lstm_3[0][0]                     
__________________________________________________________________________________________________
lambda_86 (Lambda)              (None, 64)           0           lstm_3[0][0]                     
__________________________________________________________________________________________________
lambda_87 (Lambda)              (None, 64)           0           lstm_3[0][0]                     
__________________________________________________________________________________________________
lambda_88 (Lambda)              (None, 64)           0           lstm_3[0][0]                     
__________________________________________________________________________________________________
lambda_89 (Lambda)              (None, 64)           0           lstm_3[0][0]                     
__________________________________________________________________________________________________
lambda_90 (Lambda)              (None, 64)           0           lstm_3[0][0]                     
__________________________________________________________________________________________________
lambda_91 (Lambda)              (None, 64)           0           lstm_3[0][0]                     
__________________________________________________________________________________________________
lambda_92 (Lambda)              (None, 64)           0           lstm_3[0][0]                     
__________________________________________________________________________________________________
lambda_93 (Lambda)              (None, 64)           0           lstm_3[0][0]                     
__________________________________________________________________________________________________
lambda_94 (Lambda)              (None, 64)           0           lstm_3[0][0]                     
__________________________________________________________________________________________________
lambda_95 (Lambda)              (None, 64)           0           lstm_3[0][0]                     
__________________________________________________________________________________________________
lambda_96 (Lambda)              (None, 64)           0           lstm_3[0][0]                     
__________________________________________________________________________________________________
lambda_97 (Lambda)              (None, 64)           0           lstm_3[0][0]                     
__________________________________________________________________________________________________
lambda_98 (Lambda)              (None, 64)           0           lstm_3[0][0]                     
__________________________________________________________________________________________________
lambda_99 (Lambda)              (None, 64)           0           lstm_3[0][0]                     
__________________________________________________________________________________________________
lambda_100 (Lambda)             (None, 64)           0           lstm_3[0][0]                     
__________________________________________________________________________________________________
lambda_101 (Lambda)             (None, 64)           0           lstm_3[0][0]                     
__________________________________________________________________________________________________
lambda_102 (Lambda)             (None, 64)           0           lstm_3[0][0]                     
__________________________________________________________________________________________________
lambda_103 (Lambda)             (None, 64)           0           lstm_3[0][0]                     
__________________________________________________________________________________________________
lambda_104 (Lambda)             (None, 64)           0           lstm_3[0][0]                     
__________________________________________________________________________________________________
lambda_105 (Lambda)             (None, 64)           0           lstm_3[0][0]                     
__________________________________________________________________________________________________
lambda_106 (Lambda)             (None, 64)           0           lstm_3[0][0]                     
__________________________________________________________________________________________________
lambda_107 (Lambda)             (None, 52, 64)       0           lambda_55[0][0]                  
                                                                 lambda_56[0][0]                  
                                                                 lambda_57[0][0]                  
                                                                 lambda_58[0][0]                  
                                                                 lambda_59[0][0]                  
…
