…
2019-07-19 14:41:43.797120: I T:\src\github\tensorflow\tensorflow\stream_executor\cuda\cuda_diagnostics.cc:163] retrieving CUDA diagnostic information for host: XIE
2019-07-19 14:41:43.797481: I T:\src\github\tensorflow\tensorflow\stream_executor\cuda\cuda_diagnostics.cc:170] hostname: XIE
Tensor("lambda_53/stack:0", shape=(?, 52, 64), dtype=float32)
__________________________________________________________________________________________________
Layer (type)                    Output Shape         Param #     Connected to                     
==================================================================================================
text_input (InputLayer)         (None, 4472)         0                                            
__________________________________________________________________________________________________
embedding_1 (Embedding)         (None, 4472, 100)    1520800     text_input[0][0]                 
__________________________________________________________________________________________________
lstm_1 (LSTM)                   (None, 4472, 64)     42240       embedding_1[0][0]                
__________________________________________________________________________________________________
lambda_1 (Lambda)               (None, 64)           0           lstm_1[0][0]                     
__________________________________________________________________________________________________
lambda_2 (Lambda)               (None, 64)           0           lstm_1[0][0]                     
__________________________________________________________________________________________________
lambda_3 (Lambda)               (None, 64)           0           lstm_1[0][0]                     
__________________________________________________________________________________________________
lambda_4 (Lambda)               (None, 64)           0           lstm_1[0][0]                     
__________________________________________________________________________________________________
lambda_5 (Lambda)               (None, 64)           0           lstm_1[0][0]                     
__________________________________________________________________________________________________
lambda_6 (Lambda)               (None, 64)           0           lstm_1[0][0]                     
__________________________________________________________________________________________________
lambda_7 (Lambda)               (None, 64)           0           lstm_1[0][0]                     
__________________________________________________________________________________________________
lambda_8 (Lambda)               (None, 64)           0           lstm_1[0][0]                     
__________________________________________________________________________________________________
lambda_9 (Lambda)               (None, 64)           0           lstm_1[0][0]                     
__________________________________________________________________________________________________
lambda_10 (Lambda)              (None, 64)           0           lstm_1[0][0]                     
__________________________________________________________________________________________________
lambda_11 (Lambda)              (None, 64)           0           lstm_1[0][0]                     
__________________________________________________________________________________________________
lambda_12 (Lambda)              (None, 64)           0           lstm_1[0][0]                     
__________________________________________________________________________________________________
lambda_13 (Lambda)              (None, 64)           0           lstm_1[0][0]                     
__________________________________________________________________________________________________
lambda_14 (Lambda)              (None, 64)           0           lstm_1[0][0]                     
__________________________________________________________________________________________________
lambda_15 (Lambda)              (None, 64)           0           lstm_1[0][0]                     
__________________________________________________________________________________________________
lambda_16 (Lambda)              (None, 64)           0           lstm_1[0][0]                     
__________________________________________________________________________________________________
lambda_17 (Lambda)              (None, 64)           0           lstm_1[0][0]                     
__________________________________________________________________________________________________
lambda_18 (Lambda)              (None, 64)           0           lstm_1[0][0]                     
__________________________________________________________________________________________________
lambda_19 (Lambda)              (None, 64)           0           lstm_1[0][0]                     
__________________________________________________________________________________________________
lambda_20 (Lambda)              (None, 64)           0           lstm_1[0][0]                     
__________________________________________________________________________________________________
lambda_21 (Lambda)              (None, 64)           0           lstm_1[0][0]                     
__________________________________________________________________________________________________
lambda_22 (Lambda)              (None, 64)           0           lstm_1[0][0]                     
__________________________________________________________________________________________________
lambda_23 (Lambda)              (None, 64)           0           lstm_1[0][0]                     
__________________________________________________________________________________________________
lambda_24 (Lambda)              (None, 64)           0           lstm_1[0][0]                     
__________________________________________________________________________________________________
lambda_25 (Lambda)              (None, 64)           0           lstm_1[0][0]                     
__________________________________________________________________________________________________
lambda_26 (Lambda)              (None, 64)           0           lstm_1[0][0]                     
__________________________________________________________________________________________________
lambda_27 (Lambda)              (None, 64)           0           lstm_1[0][0]                     
__________________________________________________________________________________________________
lambda_28 (Lambda)              (None, 64)           0           lstm_1[0][0]                     
__________________________________________________________________________________________________
lambda_29 (Lambda)              (None, 64)           0           lstm_1[0][0]                     
__________________________________________________________________________________________________
lambda_30 (Lambda)              (None, 64)           0           lstm_1[0][0]                     
__________________________________________________________________________________________________
lambda_31 (Lambda)              (None, 64)           0           lstm_1[0][0]                     
__________________________________________________________________________________________________
lambda_32 (Lambda)              (None, 64)           0           lstm_1[0][0]                     
__________________________________________________________________________________________________
lambda_33 (Lambda)              (None, 64)           0           lstm_1[0][0]                     
__________________________________________________________________________________________________
lambda_34 (Lambda)              (None, 64)           0           lstm_1[0][0]                     
__________________________________________________________________________________________________
lambda_35 (Lambda)              (None, 64)           0           lstm_1[0][0]                     
__________________________________________________________________________________________________
lambda_36 (Lambda)              (None, 64)           0           lstm_1[0][0]                     
__________________________________________________________________________________________________
lambda_37 (Lambda)              (None, 64)           0           lstm_1[0][0]                     
__________________________________________________________________________________________________
lambda_38 (Lambda)              (None, 64)           0           lstm_1[0][0]                     
__________________________________________________________________________________________________
lambda_39 (Lambda)              (None, 64)           0           lstm_1[0][0]                     
__________________________________________________________________________________________________
lambda_40 (Lambda)              (None, 64)           0           lstm_1[0][0]                     
__________________________________________________________________________________________________
lambda_41 (Lambda)              (None, 64)           0           lstm_1[0][0]                     
__________________________________________________________________________________________________
lambda_42 (Lambda)              (None, 64)           0           lstm_1[0][0]                     
__________________________________________________________________________________________________
lambda_43 (Lambda)              (None, 64)           0           lstm_1[0][0]                     
__________________________________________________________________________________________________
lambda_44 (Lambda)              (None, 64)           0           lstm_1[0][0]                     
__________________________________________________________________________________________________
lambda_45 (Lambda)              (None, 64)           0           lstm_1[0][0]                     
__________________________________________________________________________________________________
lambda_46 (Lambda)              (None, 64)           0           lstm_1[0][0]                     
__________________________________________________________________________________________________
lambda_47 (Lambda)              (None, 64)           0           lstm_1[0][0]                     
__________________________________________________________________________________________________
lambda_48 (Lambda)              (None, 64)           0           lstm_1[0][0]                     
__________________________________________________________________________________________________
lambda_49 (Lambda)              (None, 64)           0           lstm_1[0][0]                     
__________________________________________________________________________________________________
lambda_50 (Lambda)              (None, 64)           0           lstm_1[0][0]                     
__________________________________________________________________________________________________
lambda_51 (Lambda)              (None, 64)           0           lstm_1[0][0]                     
__________________________________________________________________________________________________
lambda_52 (Lambda)              (None, 64)           0           lstm_1[0][0]                     
__________________________________________________________________________________________________
lambda_53 (Lambda)              (None, 52, 64)       0           lambda_1[0][0]                   
                                                                 lambda_2[0][0]                   
                                                                 lambda_3[0][0]                   
                                                                 lambda_4[0][0]                   
                                                                 lambda_5[0][0]                   
…
